models/pv_fault_model.pth (torch, 13545 bytes, 6 tensors)

layer1.weight f4 [64, 6]
00000000: 09ba c83e 9d2d f13e a5f3 7abe 74ef d83e
00000010: e635 aebd 5f83 373e d4d9 93be f324 133e
00000020: 1356 f03e c6f9 84be 027c 8d3e 71e5 72bb
00000030: cfed 8c3e 2f0c b83d 85f9 1e3e 744f d8bc
00000040: 875a 923e a33a 843d 0d1f 61be a15a b33d
00000050: 9dd1 2cbe 0d7d e8bc 1950 1bbe 4749 823e
00000060: 13b8 cebe 02da 8cbe 4ecd 4bbc 12da 4cbe
00000070: e5d0 973c b833 eebe fa5c a83e e4f1 ddbe
00000080: c0a4 d53e 5849 003e ef03 36be 0bf3 5b3e
00000090: e892 283e 2c1e df3e f459 9fbd f4ce d8bd
000000a0: 90d2 223e 14d3 a6bc 7781 813e 5bc8 e93e
000000b0: 8c78 083e 9872 1fbe 8df0 913e cf4f 1d3e
000000c0: 7589 963e 0e6c f3bd 7be8 09bf a4cf d9bd
000000d0: 142f 9cbe 194d d43e 0ddb 033d 0b9a a73d
000000e0: 9f5d 723e 9b20 003d 7052 8c3e 40c8 bebe
000000f0: 91c8 97bd 6f9e c5be 3574 873e dbbc 7fbd
00000100: 6041 273d 625b 2bbe f663 cd3e f76d 36be
00000110: 57f8 abbe dcec 43be d1a4 de3e 4605 4b3e
00000120: 8bf4 d73e c081 87be 8342 fcbe 15b4 aebe
00000130: 8c78 93be cd2b 3b3e 36c9 593e 0cdf d23e
00000140: 4ec0 9fbe 2133 50be 239f 6c3e bd44 f7bd
00000150: 649c ab3e 0d72 19bc f5af 113e 7181 94be
00000160: 4cb6 8abe 2452 4b3e a90e d3bb c06b 4dbe
00000170: 820e b83e c656 983e 74b1 8cbe c27c 97be
00000180: 89a7 e83e 440d 95bc b03c 89be 2ec6 dcbe
00000190: 1d2b 8dbe a467 373e 5039 08be 6e38 d1be
000001a0: 6d62 133e 0973 52be edec 98be 996b 99be
000001b0: b14e ddbe 60f7 bbbe 1c03 063f cf48 d23d
000001c0: 33d2 9e3d cc2d ecbe 561f b7be 6a95 69be
000001d0: d98d 313e 3549 96be 41fa 06be bc8d a4be
000001e0: 021f 9ebd c6d5 90be 3e29 ff3d 1ab4 54be
000001f0: fba3 98be 2026 a0be 7d83 6abe 9ede d8be
00000200: 9449 e73e 84db 3abd 71bd b73e aa0a 2d3d
00000210: 8191 e4be 2d63 3d3e 1d82 0c3c e4d5 23be
00000220: 2d03 cabe 85c5 fcbe cefb 8a3c 0d8a 50be
00000230: 18dc 8f3e fd34 a9be 79f2 953e 2059 ccbe
00000240: 6cf9 36be 4a67 07bd 5ee3 b23e c638 9c3e
00000250: b305 943e 19c7 dcbe d8a0 d13b 2cda 8dbe
00000260: aabe 953d d7c0 91be cb2f aa3e c2de c5be
00000270: d797 8c3e 4a0c 633e 5775 4e3d f4d1 43be
00000280: 6cb0 e53e e5d9 113e 1b47 7a3d 68be cdbe
00000290: 1f57 633e 9ff6 efbb ce40 64be 9e83 ae3e
000002a0: 67ef 073d 6327 8cbe 0c5f 15be bba1 383d
000002b0: cb3e 5e3e 97ba 16be 19f2 96be 7ab3 43be
000002c0: 98dd 66be d9e0 053e 9b91 843e 1dc8 dcbe
000002d0: f8c9 453e c577 a93e e1f2 6dbd e28a 44bd
000002e0: 4be6 523e 6ebb 993e 33b9 c43d 5219 64be
000002f0: c01e bb3d 9b02 f03d 6131 edbd c572 72be
00000300: e895 b53e e715 e83e b947 1fbe 2ce1 1abd
00000310: 8ab0 8abd 54bc 2e3d ba0a 393e 7c7e 5b3e
00000320: d415 febe addc 4ebd 4c8d 9e3e 6082 5b3e
00000330: 8a20 743d 21d0 18be f5c0 babe 44ae ccbe
00000340: 6ae8 2bbe 25a7 5e3e f6e5 b13e e2d6 8e3e
00000350: ac3a f0be 3901 67be 3b03 08be 1e47 ee3e
00000360: 708d 063e e0b5 5435 6b62 7e3d 9a75 13be
00000370: 52ec 86be d144 c43e 0a28 13be 2b76 31bd
00000380: 87d3 edbe 6f0d a63e b3ca a13e 6704 313e
00000390: 8492 42be f57e 93be a48e eabe 9190 c73e
000003a0: 8d9d 8a3e 50c7 e13e ddd0 9a3e 34d0 5e3e
000003b0: 5be5 00be 9a7d a6be 1747 cdbe e867 9abe
000003c0: c154 b83d 784c 94be 2664 a73c 1c12 3dbe
000003d0: da5e c1bd 42aa b7be a6d4 5bbe a8a7 6a3e
000003e0: 0c08 5cbe 82ad ab3e ea31 26be a081 76be
000003f0: 6f8e fcbd bb8e 7dbe cd25 7bbd 041b bfbe
0.39204434 0.47105113 -0.24507006 0.42370188 -0.08506374 0.17921208 -0.28877127 0.14369564
0.4694067 -0.25971812 0.27633673 -0.0037063027 0.27525184 0.08986699 0.15524872 -0.026405074
0.28584692 0.064564966 -0.21984501 0.087575205 -0.16876836 -0.028379941 -0.15167274 0.2544653
-0.40374812 -0.27510077 -0.012439085 -0.20005062 0.018532226 -0.46523833 0.32883435 -0.4334861
0.41727257 0.12527978 -0.17774938 0.21479432 0.1646229 0.43577707 -0.07780829 -0.10586348
0.15900636 -0.020364322 0.25294086 0.45660672 0.13327235 -0.15571058 0.28503838 0.15362476
0.29401746 -0.11885844 -0.5387036 -0.106353074 -0.30504668 0.4146507 0.032191325 0.08183678
0.23668526 0.031281095 0.27406645 -0.37262154 -0.07411302 -0.38597438 0.26455846 -0.062435966
0.04083383 -0.16734079 0.40115327 -0.17815386 -0.33587906 -0.19133323 0.4348512 0.1982623
0.4217876 -0.2646618 -0.49269494 -0.34121767 -0.28802907 0.18278427 0.21268162 0.41185796
-0.31201404 -0.20332004 0.23107581 -0.12073658 0.33517754 -0.009365571 0.14227279 -0.29005006
-0.27092206 0.19855553 -0.0064409566 -0.20060635 0.3594857 0.29753703 -0.27479136 -0.2958737
0.4544032 -0.018194802 -0.26804113 -0.4311995 -0.27571955 0.1791063 -0.13303113 -0.40863365
0.14393015 -0.20551695 -0.2986826 -0.29964903 -0.432241 -0.3671217 0.52348495 0.102677934
0.07754936 -0.4612869 -0.35766095 -0.22810903 0.17339267 -0.29352728 -0.13181402 -0.32139385
-0.07720758 -0.28288096 0.12459038 -0.20771828 -0.29812607 -0.31279087 -0.22901721 -0.42357343
0.45173323 -0.045619503 0.3588672 0.0422465 -0.4464226 0.18494864 0.008575943 -0.15999562
-0.39455548 -0.49369445 0.016965773 -0.20365162 0.28097606 -0.3304824 0.29286554 -0.39911747
-0.17868584 -0.03305749 0.34939092 0.30512065 0.28910598 -0.4312065 0.006397348 -0.27705514
0.07311757 -0.28467438 0.33239588 -0.38646513 0.27459595 0.22172657 0.050404873 -0.1912306
0.44861162 0.14243276 0.061102968 -0.4018433 0.22201203 -0.0073231007 -0.22290346 0.3408479
0.033187296 -0.273738 -0.14587039 0.045076113 0.21703641 -0.14719616 -0.2948158 -0.19111434
-0.22545469 0.13074054 0.25892338 -0.43121424 0.19315326 0.3309919 -0.058092955 -0.04798401
0.20595662 0.3002581 0.096056364 -0.22275284 0.091367245 0.11719247 -0.11581684 -0.23676594
0.35465932 0.4532921 -0.15554704 -0.037812397 -0.067719534 0.042660072 0.18070498 0.21434969
-0.4962603 -0.05050342 0.30967176 0.21436453 0.059601344 -0.14923145 -0.3647534 -0.39976704
-0.16787878 0.21743448 0.3474576 0.27898318 -0.46919763 -0.2255906 -0.13282482 0.46538633
0.13139892 7.924082e-07 0.062105577 -0.1440033 -0.26352173 0.38333753 -0.14370742 -0.043325584
-0.46450445 0.32432124 0.3159996 0.17286836 -0.19001204 -0.28807798 -0.4581195 0.38977483
0.27073327 0.44097376 0.30237475 0.2175911 -0.12587492 -0.325177 -0.400933 -0.301574
0.090005405 -0.2896459 0.020433497 -0.1846394 -0.094419196 -0.35872084 -0.21467838 0.22915518
-0.21487445 0.33530813 -0.16229978 -0.24072886 -0.123318546 -0.24761479 -0.061315347 -0.373253

layer1.bias f4 [64]
00000000: 0820 023e 64ea c33e 9d5c c7be fe33 2cbe
00000010: 9ba7 8f3e 8a6b 1a3d af3a 213d 9364 90bd
00000020: 2c94 c83e 3a44 993e 9cd0 4f3e 84fc 0fbe
00000030: bba8 8fbe 9e75 0f3e 1d58 573e 1520 b0bd
00000040: 1b0c 4bbc 83cb a23e 5fbe 143e 9125 e43d
00000050: a61e 65bb 8933 82be 3fe7 96be 08a0 a2bd
00000060: 9313 14be 1da0 543e 8521 a0bc 23c1 09be
00000070: 2db5 ff3e 3ff1 093e 82cf d83e ef10 a1bd
00000080: a2d1 46bd 8178 893e 4014 3cbe 920c 1ebe
00000090: 46fc ed3b b06c c9bd c7fb 41be 3a17 b03e
000000a0: 70d8 cd3e 9b35 433e 615b 3fbd 7337 cabe
000000b0: 62ae abbc 117a 573e 8d16 903e 8bb2 8b3d
000000c0: 9025 cdbd 9efa a93e 8e14 53be 4573 a23e
000000d0: 39c8 90bd 5504 103e d345 bdbd ed2b 273e
000000e0: c11d 313d 6162 963e 224c b53d 6c83 943e
000000f0: 70ed fe3e e776 adbd 7fe0 37be f8fb d03e
0.12707531 0.38264763 -0.38937846 -0.16816708 0.2805756 0.037700213 0.039362606 -0.07050433
0.39175546 0.29934865 0.20294422 -0.14061171 -0.2805842 0.14009711 0.21029706 -0.08599869
-0.012393023 0.31795892 0.14525746 0.11139978 -0.0034960895 -0.25429943 -0.29473302 -0.0794068
-0.14460592 0.20764203 -0.019547233 -0.13452582 0.49942914 0.13470934 0.42345816 -0.07864558
-0.048539765 0.2684975 -0.183671 -0.15434483 0.0072627394 -0.098351836 -0.18943702 0.3439272
0.4020419 0.19063418 -0.046718005 -0.3949543 -0.020957176 0.21042658 0.28142205 0.06821164
-0.1001693 0.33199018 -0.2061331 0.3172857 -0.070694394 0.14064153 -0.092418335 0.1632535
0.043241266 0.29371932 0.08852412 0.29006517 0.49790525 -0.084699444 -0.17956732 0.40817237

layer2.weight f4 [32, 64]
00000000: afa9 373e 385f 97bd 86dc 6e3c 92d3 84bd
00000010: b1f4 0abe 0989 4b3b 808b ea3d b37e d73d
00000020: ca71 333d 0b97 0d3e 5502 2ebd 2a84 65ba
00000030: 0eb6 5a3d b39d d43d 12af da3d 2213 18be
00000040: d923 eb3d 8d45 b7bd 9818 25be c9c9 ddbd
00000050: ec85 af3d 72ac 413d 00ed aa3d caea ea3c
00000060: 2137 523d f8a1 d0bc d7ea d0b9 0a2b e93c
00000070: f691 913b 4c64 51bd 008f 383d f083 07bd
00000080: a30c 183e c6c3 223d a009 84bc bc26 ba3d
00000090: b894 3dbc 56bb 9f3b 3d3f 0f3e a709 3e3d
000000a0: c502 003e d7f6 473e 55f9 ae3c 8b4c e33c
000000b0: 06b4 f73d adaf c0bc 59c7 4dbd db0d 9c3d
000000c0: 0059 cb3d 8b5b 4f3e 3333 243d 1e56 143d
000000d0: 8f6a 5abd f0a4 033d 4b76 043d c124 2a3e
000000e0: a5cd 5f3e 8cee 4e3d 6c0b 3bbd 3972 3fbd
000000f0: eb77 813d 2f2a 8d3d 51a0 c33d 387f 60bd
00000100: a2e1 163e 8b07 58bd bd05 36bd a269 e0bc
00000110: 408f 643d 69e8 10be 2562 583e 241c da3d
00000120: aaba aa3d f1a4 e03d 532c bebd 2650 353e
00000130: 7fbe 293e 766e d83b f275 003e 9f8b 3cbd
00000140: a98b ec3d a9d1 15bd 1f5f 34bd 9599 f0bd
00000150: 037f 87bd 2ef6 2d3d 2aa7 223d 1409 7dbd
00000160: bc39 1dbe f4f7 26bb b216 823c 3125 3e3d
00000170: 3568 ae3c 2433 a03c ec59 ae3d d6db 62bd
00000180: 613c 703e 3ab9 063e 19f7 183e 3b21 463e
00000190: 0977 283e 4d13 c43d 9c54 a43d 3f82 113e
000001a0: ee67 77bc 2c3f 133e a6c8 2bbd 573d c2bd
000001b0: 17e5 303e 92d7 86bc ff93 84b9 fcdd 5e3e
000001c0: 0f55 0d3e 8793 693e 7475 cf3d f383 af3c
000001d0: a714 d0bd 4165 3c3d 9b6d ccbd ab70 443d
000001e0: 9c07 933d df9f bdbd 489e 9d3b d2be eabd
000001f0: 34be 493d baf5 2d3e dcb3 593e 44a3 e13c
00000200: 943f 58bd 6df6 523d 4641 9fbd 9ff9 94bd
00000210: 4dcd b33d 7d26 cebd 73bd ddbb 3080 b63d
00000220: dec2 373b d717 a73c f714 8abd b3bd a5bc
00000230: 45f7 c3bb 6e51 213c e365 0d3d 2baa 0b3e
00000240: 99d2 e2bd 93a0 d53c 4f1e 37bd e0e3 b4bd
00000250: fd7e 4e3c edb8 cfbd b942 f23d 2823 943c
00000260: af57 7fbd f6e7 5a3d 6885 0ebe 2d5e 47bd
00000270: 8815 2ebd 53b7 f3bd bfc3 c9bd 80ac e03c
00000280: 1edc 963d 388c cb3d 0723 833d 71e8 babd
00000290: 96ae bebd c3a2 b93d 2ebd ed3c 7b79 a7bb
000002a0: 2a6e 343c 6933 d1bd 7631 5abd e191 df3d
000002b0: 581d 40bd f58c 92bc 9f7d dbbd 4486 aabd
000002c0: 1df1 a43b 3768 c6bd 610d 00bd 576a fd3c
000002d0: 180d 10be 141c 843c 9678 a0bd 6ad7 a3bd
000002e0: 8216 ee3c 8d60 aa3d 0c3b 48bd e2ce 6bbd
000002f0: b71f 05be 2568 aabd 5090 06be e021 47bd
00000300: b964 b2bc 2c2d 88bd 5e8a c13d fc7f 553d
00000310: b7a9 febc 183a 0d3d 8ad5 44bc 7d7e 82bd
00000320: 85e0 42bd 147f 73bc 65c7 443e f7d3 cabd
00000330: 363f a53d 0b63 07bd 9969 963c 4098 453e
00000340: f007 50bd f927 b93c b9cc 6b3d 300e 433e
00000350: 046c 343a abc9 e43d 28b9 3abd 8b23 143e
00000360: 1092 f63d 40b7 893d 6021 b33c 1fa2 ba3d
00000370: 0c50 923d b78e 6dbd d91f 7cbd 3409 453e
00000380: 8649 9d3d 98a8 9b3c b822 ebbd 8aba 6f3d
00000390: 49c2 e5bc 17ed 8abd 0448 f7bd 14d5 fdbc
000003a0: d53f 173e 8aef 1d3d e250 87bc 0b99 963d
000003b0: ba4a cebd 0cba 383e 3ad0 a1bb 807e 79bd
000003c0: a058 c9bd df04 acbd 1d38 ef3b 7976 a13d
000003d0: 9f2e da3d 4e82 963d ad29 8d3d ec20 d53c
000003e0: d2eb d93c b6a8 1f3e ef1f e9bc 9e5f 4a3e
000003f0: 4a7d 013d 7ab4 c6bd 0a8c c8bd c93d b4bd
0.17935823 -0.073912084 0.014578944 -0.06485666 -0.13569905 0.003105702 0.11452389 0.10522213
0.04380969 0.1382715 -0.042482693 -0.0008755351 0.053396277 0.10381641 0.10677923 -0.14851049
0.11481447 -0.08948813 -0.16122663 -0.10829503 0.085704654 0.047283597 0.083459854 0.02867641
0.051322106 -0.025467858 -0.0003984782 0.028462905 0.0044424487 -0.05112104 0.04505825 -0.03308481
0.1484857 0.039737485 -0.01611787 0.09089419 -0.011571102 0.004874627 0.13988967 0.046395924
0.12501056 0.19527756 0.021359125 0.02774646 0.120948836 -0.023521269 -0.05023894 0.0761983
0.09929085 0.20249765 0.04008789 0.03621494 -0.05332428 0.03213972 0.032339375 0.16615583
0.21855791 0.050520465 -0.04566519 -0.04673979 0.06321701 0.068928115 0.09552062 -0.054808825
0.1473451 -0.05274157 -0.044439066 -0.02739412 0.055800676 -0.14151157 0.21131189 0.10649899
0.083363846 0.1096896 -0.09285798 0.17706355 0.16576575 0.006604965 0.12544993 -0.04603159
0.115500756 -0.0365769 -0.044036027 -0.117480434 -0.066160224 0.042471103 0.0397102 -0.061776236
-0.15354055 -0.0025477381 0.015879963 0.046422187 0.021289924 0.019555636 0.08513245 -0.055385433
0.23460533 0.13156596 0.1493801 0.19348614 0.16451658 0.09573994 0.080239505 0.14209841
-0.015100462 0.14379567 -0.0419394 -0.09484356 0.17274891 -0.016460214 -0.00025287268 0.21764368
0.13801979 0.22810183 0.10129824 0.021425223 -0.10160189 0.045995 -0.09981843 0.04795901
0.07179186 -0.092590086 0.0048101284 -0.11462177 0.049253657 0.16988268 0.21260017 0.027543671
-0.052795008 0.05150454 -0.07776122 -0.07274174 0.087793924 -0.10065935 -0.006766969 0.089111686
0.0028039734 0.02039711 -0.0674228 -0.020232057 -0.0059804046 0.0098460745 0.034520995 0.13639133
-0.110753246 0.026077544 -0.04470664 -0.08832526 0.012603519 -0.10142694 0.118291326 0.01808317
-0.06233948 0.05344387 -0.13918078 -0.048673797 -0.042501003 -0.11900201 -0.09851789 0.027426004
0.07366203 0.09938854 0.06403165 -0.09126366 -0.093106434 0.090642475 0.029020872 -0.005110917
0.011012593 -0.10214884 -0.053269826 0.10916496 -0.046902984 -0.01788948 -0.1071732 -0.083263904
0.0050336258 -0.09687846 -0.03126276 0.030934496 -0.14067495 0.01612667 -0.078355 -0.08000071
0.029063467 0.08319197 -0.048884436 -0.057570346 -0.1300038 -0.08320645 -0.13140988 -0.04861629
-0.021776544 -0.06649241 0.094502196 0.05212401 -0.031086786 0.03447923 -0.012013802 -0.06371782
-0.0475774 -0.014861841 0.19216688 -0.0990371 0.08068697 -0.03305344 0.0183609 0.1929636
-0.05078882 0.022602068 0.057568286 0.19048381 0.00068825507 0.111712776 -0.045586735 0.14466684
0.12039578 0.06724405 0.0218665 0.091129534 0.07144174 -0.05799743 -0.06155381 0.19241792
0.07680039 0.01900129 -0.114812315 0.058527507 -0.028046744 -0.067835025 -0.12074283 -0.030985393
0.14770444 0.03855852 -0.01651806 0.073534094 -0.10072847 0.18039721 -0.0049381526 -0.060911655
-0.09831357 -0.083993666 0.0073003904 0.07883925 0.106534235 0.073490724 0.06892715 0.026016675
0.026601706 0.15591702 -0.02845761 0.19763038 0.031613626 -0.09702392 -0.09792335 -0.08800847

layer2.bias f4 [32]
00000000: 59a5 0b3e f98f 193e 560e 963d ee39 69bc
00000010: c1a0 423e f7fe 9e3c e885 b63c 3bef e63c
00000020: 5ea5 8ebb 5a35 0b3c 238e 06be ee97 4c3c
00000030: 336a a43d 51c7 3f3d 0d39 d6bd 2005 423e
00000040: 2b32 493d c81b 093e 6184 393e 6ddc fcbb
00000050: 58e7 483d 6088 273e fffa d63d 8d0c 9c3d
00000060: 913a 283e 5224 d0bc c9a8 493d d306 ef3d
00000070: b2e8 f0bc ed29 4a3e 0453 f63d 7e4c 243d
0.13637294 0.14996327 0.07326953 -0.014235003 0.19006635 0.019408686 0.022280648 0.028190246
-0.0043532094 0.008496607 -0.13140158 0.012487395 0.080280684 0.046820942 -0.104601 0.18947268
0.04912011 0.13389504 0.18116905 -0.0077167065 0.04904875 0.16360617 0.104970925 0.07619581
0.16428591 -0.025407944 0.04923323 0.116712235 -0.029407833 0.19742556 0.12027553 0.04011201

layer3.weight f4 [2, 32]
00000000: 335b 8f3e 8bf1 893e 78f4 ff3c b120 29be
00000010: 0600 c73d ff1e 3cbe e75c 653e db10 d4bd
00000020: 36f0 e1bd 740e 6b3e 8482 d93c 1c73 43be
00000030: e90f 683e ac3d 9bbc e34f b9bd b892 733e
00000040: 8219 223e 81df 7c3d dd38 76be 66cd e1bd
00000050: 72b2 86be 7bde 523e 8a4b 223e 7a33 753d
00000060: 7259 8a3e 8598 2cbe 9075 013e 60b8 5fbe
00000070: 2ab5 29bb 4757 2b3e 4a92 7c3e 69ed d9bd
00000080: ab13 4ebe db0e 0f3c db4d d13d d3e2 b03d
00000090: 8395 3ebe 5272 0b3e 55f2 c1bd 30e6 8b3e
000000a0: 45e7 313e 07a0 debd 5596 343d d2bf 323e
000000b0: dbd7 a7bd fbe2 8e3e 536e 963d a77c 73be
000000c0: da7d ddbd 9380 7cbe b8cb b1bc d212 ec3d
000000d0: e797 043e 96c8 f6bd 65dc 0c3e 43a9 52be
000000e0: 58bf 38be 2c27 993d 88b9 c2bd f778 a43d
000000f0: 7dfc 1d3e cf9e 2ebe b7a4 86be 90e7 ec3d
0.27999267 0.26942095 0.031244501 -0.16516377 0.09716801 -0.18371199 0.2239872 -0.103547774
-0.11032145 0.22954732 0.026551493 -0.1908688 0.22662319 -0.018950306 -0.0904844 0.23786438
0.15830043 0.061736587 -0.24045129 -0.11025505 -0.26308018 0.20592682 0.15849128 0.059863545
0.27021366 -0.16855057 0.12642503 -0.21847677 -0.0025895336 0.16732512 0.2466518 -0.106409855
-0.2012469 0.008731569 0.10219928 0.08637013 -0.18611722 0.13617828 -0.09470049 0.27324057
0.17373379 -0.108703665 0.04408868 0.17455986 -0.08195468 0.27907547 0.073452614 -0.2377802
-0.1081502 -0.24658422 -0.021703586 0.11527027 0.12948571 -0.120499775 0.13755949 -0.2057238
-0.18041742 0.074781746 -0.095080435 0.08030885 0.15428348 -0.17052768 -0.26297542 0.115676045

layer3.bias f4 [2]
00000000: c968 393e 0074 cfbb
0.18106379 -0.006330967
